model.pth (torch, 37374 bytes, 13 tensors)

weight f4 [60, 90]
000000 52 15 1d 3d e0 43 f3 3d 3b 56 e7 3d 1f 9f e3 3a
       0.03835041 0.118781805 0.11295744 0.0017366147
000010 c1 cd 87 bd 1d 76 7b 3c b4 ba e4 bc b9 ff a2 3d
       -0.06631041 0.015347985 -0.027921058 0.079589315
000020 69 a7 d6 3e f5 c5 f9 bb 12 29 73 3d b2 b2 44 3c
       0.419246 -0.0076224753 0.05936534 0.012005495
000030 b4 9a 1e bc 5f ea d6 be 1c f7 4c bd 24 87 9f bd
       -0.009680439 -0.41975686 -0.05004035 -0.07789448
000040 2b 27 3b 3b 3b 09 ae 3d 92 cc ee bc eb 43 00 3e
       0.0028557281 0.08497854 -0.029150281 0.12525909
000050 07 dd 7d 3d 5b ac 82 3d db 68 66 be 85 f6 d4 bc
       0.061978366 0.063805304 -0.22500937 -0.025996456
000060 88 a5 8d bd 6b d5 8b 3e a1 39 05 bd f1 47 67 3c
       -0.06916338 0.27311262 -0.032525662 0.014116273
000070 35 cb dc bc b6 71 6f bd 2f 04 9b be 5b 36 e6 3b
       -0.026952365 -0.058458053 -0.3027663 0.0070255226
000080 54 b8 01 bc 65 f9 83 bd 30 60 e9 ba 41 36 7b 3e
       -0.007917482 -0.064440526 -0.0017805155 0.24532415
000090 d8 6a e8 bd 9e 06 e3 bd ef 31 38 be 31 87 22 bd
       -0.11348504 -0.110852465 -0.17987798 -0.03967971
0000a0 41 26 ae bc 06 ed b9 bd 7b 61 17 bd ee fd 26 bc
       -0.021258475 -0.09078412 -0.0369582 -0.0101923775
0000b0 af 75 ce 3d 96 69 2d 3a 95 60 88 3c fc 83 af 3c
       0.1008104 0.000661516 0.016647616 0.02142524
0000c0 c3 cb aa 3c 61 d6 6a bc 79 d5 4a bb a9 cb 94 bb
       0.020849114 -0.0143333385 -0.0030949994 -0.0045408797
0000d0 15 9a d3 3d 78 6d de bd 9f 4b 38 3d c1 7c b2 bd
       0.10332123 -0.10860723 0.044993993 -0.08715201
0000e0 97 e3 cb 3e c5 22 52 be ba c7 86 3d 70 20 3a 3e
       0.39822075 -0.20521076 0.065810636 0.18176436
0000f0 e3 c2 f4 bb 6e e6 08 3d eb 55 13 bc 08 cc 97 be
       -0.0074695214 0.03342288 -0.008992652 -0.2964785
000100 f5 3b 0c 3e 96 fe 39 3d 20 d2 00 3e 88 a3 25 be
       0.13694747 0.045408808 0.12580156 -0.16175663
000110 07 ed b9 3e ab 63 2c bd da 88 3b 3e 70 9e 6c bd
       0.3631365 -0.04208724 0.18313923 -0.057768285
000120 d1 80 b0 3c 46 5b 08 bc 09 52 9a 3d 5e 7a 2e 3b
       0.0215458 -0.0083225425 0.07535178 0.002662323
000130 10 32 6c 3e 8f 20 55 39 60 6a a5 3d 92 28 5e 3e
       0.23065972 0.00020325392 0.0807693 0.21695164
000140 00 06 30 3e 66 ba 8d 3d cd c0 76 bd 26 44 78 3b
       0.17189789 0.06920318 -0.060242463 0.0037882417
000150 14 c6 68 b7 fc 60 82 be 59 77 18 be c5 fd 09 3e
       -1.3874396e-05 -0.25464618 -0.14889278 0.13475712
000160 6e 63 a0 3e 3e 88 10 3e 9b 5d 3c 3c 47 c9 d2 bd
       0.3132586 0.14114472 0.011496927 -0.10292297
000170 9d 61 99 3c 06 97 2c be 70 c9 a7 bd cf 2d 06 3d
       0.018723303 -0.16854486 -0.08192718 0.03275853
000180 d3 e4 fa bc e6 a9 26 be 47 d9 da 3d 83 ad 15 bd
       -0.03062669 -0.16275749 0.106859736 -0.036542427
000190 4b 02 36 be 62 4b 13 3d ff a3 10 bb b7 07 5d be
       -0.17774312 0.035960563 -0.0022070406 -0.21584974
0001a0 cf 89 c9 bd 03 a1 00 3e 85 e9 fb bd 31 4d e7 3d
       -0.09840738 0.12561421 -0.123004 0.1129402
0001b0 e1 27 69 3d e7 11 2a be 13 8b 7b bd 4a 79 3d be
       0.056922797 -0.16608392 -0.06141193 -0.185033
0001c0 19 d5 98 be 80 2d 5c bd 30 79 33 3d ff 41 b0 3e
       -0.2985008 -0.05375433 0.043816745 0.3442535
0001d0 7d c4 41 be 64 5e a0 3b fe 89 c3 be 5a 46 08 bc
       -0.1892261 0.0048940647 -0.38191217 -0.008317554
0001e0 b3 de 5c 3e 2a c7 88 3d 33 5e 61 be 23 67 c7 3d
       0.21569328 0.066786125 -0.2200859 0.09736469
0001f0 9e 91 be 3e 5f 90 08 be e5 df c2 bd 0c c0 99 3d
       0.37220472 -0.13336323 -0.09515361 0.07507333
000200 46 a8 a2 3d 47 15 0c 3d ab 1f 07 bd 53 cd 1d be
       0.07942252 0.03419998 -0.032989185 -0.15410356
000210 ad a8 db be fa 7c a5 3d 59 94 01 3e 2d 8f 1e 3c
       -0.42902127 0.08080478 0.12654246 0.00967769
000220 ab e1 13 bd e9 c6 db bb b9 0b 75 bc ba b5 5b be
       -0.036103886 -0.0067070615 -0.014956408 -0.21456042
000230 0d a4 8d 3d da 0f 81 3e 28 55 26 3e c4 38 78 3d
       0.06916056 0.25207406 0.16243422 0.06060101
000240 c0 3b 9f 3b c2 38 0f be 6f 42 b3 bd 75 a8 55 bd
       0.0048594177 -0.13986495 -0.087529056 -0.052162606
000250 c8 60 91 3e 05 91 d8 bd b7 46 55 3d 28 b8 bf 3d
       0.2839415 -0.10574535 0.052069392 0.09361297
000260 4a 30 8e 3d e5 fd 37 be 5f 0e ad 3c 90 8e 00 bd
       0.06942804 -0.17967947 0.021125017 -0.03138596
000270 d2 e8 dc bd 02 15 03 3e 0b ab 8b bb ee e8 c6 3d
       -0.107865945 0.12800983 -0.0042623333 0.097123966
000280 0a f4 2d be 72 60 af bd 3a 4c 10 3c 34 c5 0a be
       -0.16987625 -0.08563317 0.008807236 -0.1355179
000290 81 47 1b bd 28 62 80 be ed 2d 83 be c1 b0 4f bd
       -0.03790999 -0.25074887 -0.25620976 -0.050705675
0002a0 07 54 80 be 8d f9 88 3d 12 38 45 3d b1 e3 6b 3e
       -0.25064108 0.06688223 0.048149176 0.23036076
0002b0 2a 2d a6 3d ba 80 35 3e 73 e6 2e be de 13 10 be
       0.08114083 0.17724887 -0.17080097 -0.14070079
0002c0 53 89 3b be 3a d5 ea bc f1 b5 da 3d ae 2c 9d 3c
       -0.18314104 -0.028666127 0.10679234 0.019186344
0002d0 15 89 de 3c 41 d6 0e 3e 43 1d 70 3e a8 3e b4 3d
       0.027164975 0.13948919 0.23448662 0.08801013
0002e0 47 7a 2c 3e 84 54 c5 bc a5 42 25 bd 51 26 23 3e
       0.1684352 -0.024088152 -0.04034676 0.15932585
0002f0 f4 29 a2 3c cb bf cd bd 9c 72 8c be 11 c4 af 3b
       0.019795395 -0.10046347 -0.2743119 0.005363949
000300 a9 89 32 3d fd 74 81 be 52 c9 a6 be 00 87 31 3d
       0.043588314 -0.25284567 -0.3257547 0.043341637
000310 3d e1 39 3c c2 fd ba bd 48 c7 e2 3d 1c ce bb 3d
       0.011345205 -0.09130432 0.11073166 0.091701716
000320 6d 8f 1d 3e 2e 40 d6 bc 88 db e4 3c 4f 50 93 bc
       0.15386744 -0.02615365 0.027936712 -0.01798263
000330 46 a0 10 3e 9e 01 90 bc be b8 c6 bc ff bc c8 bd
       0.1412364 -0.017578896 -0.024258014 -0.09801673
000340 0b a6 02 3a ba 48 e3 bb 53 4a 78 3a d5 d9 bf 3c
       0.0004983849 -0.00693616 0.00094715244 0.0234193
000350 eb ef 43 bd 45 0e 2f bd 7f c4 a3 3d 18 b6 9e be
       -0.047836225 -0.042738218 0.07996463 -0.30998302
000360 ab d8 3a 3d 9d 65 11 3c 44 9f c9 3d 05 f0 c0 ba
       0.045616787 0.008874324 0.09844831 -0.0014719969
000370 f1 34 a2 be ff c5 f3 3c 26 ff 92 3c 6e 66 06 bd
       -0.31681016 0.029757498 0.01794393 -0.03281253
000380 5e 42 7c 3e 1e fb a7 3c f2 c8 4d 3e 64 2c 0d 3c
       0.24634692 0.020505484 0.20096186 0.008616541
000390 4f 54 48 3a 04 a6 bd bd e4 76 70 be b0 73 16 3e
       0.00076419575 -0.092601806 -0.23482853 0.14692569
0003a0 1c 27 b4 bb de 24 01 be 72 68 06 3e 50 c3 78 bd
       -0.0054978263 -0.1261172 0.1312578 -0.06073314
0003b0 34 a0 ef bd 8c 78 cf be 29 6e 8f 3c a4 bd c3 3d
       -0.11700478 -0.40521657 0.017508583 0.095576555
0003c0 c5 9c 28 3d 88 64 76 bb 8b f1 05 3d 9f 7e ad 3b
       0.041165132 -0.0037596542 0.032701056 0.0052946354
0003d0 9e a4 15 3d d0 1f 19 3c 1d 64 37 bb a5 cb b9 bc
       0.036533944 0.009345964 -0.0027983256 -0.022680113
0003e0 15 52 86 bb e7 12 31 bd b2 08 d7 bb 17 5f 14 3d
       -0.0040991404 -0.043230917 -0.006562316 0.036223497
0003f0 12 9c a6 3c dd 7f 90 bc 96 88 15 be a0 c6 38 bb
       0.020338092 -0.017639095 -0.14602885 -0.0028194562

bias f4 [60]
000000 93 eb aa 3a a6 76 9d 3a a6 50 3d b9 26 7f 38 39
       0.0013040177 0.0012013509 -0.00018054488 0.00017594974
000010 19 27 e3 39 a0 5b 7c 39 a7 2e 35 3a 77 e9 6a b9
       0.00043325944 0.00024066726 0.0006911554 -0.00022402951
000020 1d 62 11 3a 4a 97 5c 37 45 37 5b 3a cc de 89 ba
       0.0005545931 1.3148247e-05 0.0008362423 -0.0010518669
000030 49 01 57 3c 16 b1 67 3a df 56 29 39 b4 77 a2 3a
       0.013122865 0.00088383385 0.00016149458 0.0012395293
000040 cd aa 9e b9 c4 7a f2 39 d1 be 16 3d 16 40 31 3a
       -0.00030263365 0.00046249304 0.03680307 0.0006761564
000050 b5 04 20 bb 32 70 03 3a d4 37 0d 3a 27 bf 3d 39
       -0.0024416868 0.0005013972 0.0005387042 0.00018095654
000060 4e f9 45 ba 82 a1 c0 38 b4 76 31 ba ce 53 f1 bd
       -0.0007552103 9.1853566e-05 -0.00067697023 -0.117835626
000070 46 12 0a 39 0b a1 62 39 1f 30 04 3a 0c c0 00 38
       0.00013167513 0.00021613033 0.0005042571 3.0696436e-05
000080 34 4d 2f ba fc 84 60 39 51 2d c7 3a f6 04 e5 ba
       -0.00066872244 0.00021411845 0.0015196 -0.0017472792
000090 d6 e8 60 3c ca 18 bf b9 c5 9c 87 39 49 a4 68 bc
       0.013727387 -0.00036448828 0.0002586601 -0.014199325
0000a0 e7 37 44 39 e9 5e 9a b8 ef 4f 7f b8 cd 2a 3b ba
       0.00018712842 -7.3609706e-05 -6.087118e-05 -0.00071398617
0000b0 59 8a 25 39 34 ab 59 b9 74 36 e3 38 39 4b c7 38
       0.00015787165 -0.00020758511 0.00010834346 9.503071e-05
0000c0 b2 55 04 b9 b9 a7 78 3a 36 26 65 b8 b8 15 28 3a
       -0.00012620425 0.0009485442 -5.463344e-05 0.0006411928
0000d0 a4 15 57 3a b5 33 d9 38 55 82 85 3a b0 dd 50 3d
       0.0008204824 0.000103569975 0.0010185937 0.050992668
0000e0 a6 8c 1c bd b7 72 26 b9 4c f3 ac 39 9d a4 da 39
       -0.03822007 -0.00015873728 0.00032987667 0.00041702847

weight f4 [60]
000000 dc bb 34 3f a1 1e 71 3f e8 18 42 3f 63 7e 69 3f
       0.7059915 0.9418736 0.75819254 0.91208476
000010 fb 99 10 3f 23 1b 20 3f 5f 2d 2d 3f 42 7b 2c 3f
       0.56484956 0.6254141 0.67647356 0.67375576
000020 57 2d 3a 3f 4e f0 8e 3f f8 f7 35 3f 07 2e 84 3f
       0.72725433 1.1167085 0.71081495 1.0326546
000030 88 0f 26 3f 50 dd 58 3f 43 d8 55 3f e5 81 60 3f
       0.6486745 0.84712696 0.83533114 0.87698203
000040 5b c3 40 3f fb 7d 25 3f c0 bb 23 3f 27 fb 01 3f
       0.7529809 0.64645356 0.6395836 0.50773853
000050 ba 84 46 3f 16 58 52 3f 91 e1 47 3f 41 3e 26 3f
       0.77546275 0.8216566 0.7807856 0.6493874
000060 00 aa 1a 3f c2 0f 3b 3f 8c b9 28 3f b3 66 32 3f
       0.6041565 0.7307092 0.6590812 0.69687957
000070 b4 a0 49 3f 55 9d 63 3f 2c 0c 64 3f a6 65 12 3f
       0.7876084 0.88911945 0.8908107 0.57186353
000080 7f a7 3d 3f d9 71 59 3f 64 be 57 3f c5 a9 58 3f
       0.74083704 0.8493934 0.8427489 0.8463405
000090 6d d2 2b 3f f6 b2 47 3f b4 b4 33 3f 44 b8 57 3f
       0.6711796 0.7800745 0.70197606 0.8426554
0000a0 5c 80 30 3f 8d 29 37 3f 3b b9 7b 3f 7a f1 34 3f
       0.6894586 0.71547776 0.98329514 0.70680964
0000b0 68 51 18 3f 3a 94 54 3f d8 53 5b 3f 0d 38 87 3f
       0.59499216 0.83038676 0.8567481 1.056398
0000c0 a3 63 2e 3f 27 26 5b 3f 96 e4 93 3f 5e c9 88 3f
       0.68120784 0.8560509 1.1554134 1.0686452
0000d0 61 b8 40 3f 35 9b 16 3f d0 36 3a 3f 09 f6 4f 3f
       0.7528134 0.5883058 0.7273989 0.81234795
0000e0 eb de 2d 3f e1 9f 1f 3f 6f b9 6c 3f 1c 44 37 3f
       0.6791827 0.6235333 0.9247045 0.715883

bias f4 [60]
000000 7f 10 a3 be eb ee 32 be 48 94 a7 bb f8 13 b7 3b
       -0.31848523 -0.17473952 -0.005114112 0.0055870973
000010 13 2f ba be e6 3e 6f be 66 6c 65 bf fa f7 f5 bd
       -0.3636404 -0.23363838 -0.8961853 -0.120101884
000020 e1 95 8f be 92 44 dc be 6b 86 23 be 34 17 c2 bd
       -0.28044036 -0.43021065 -0.15969245 -0.09477082
000030 30 f1 7f be d6 c3 de be 68 c6 91 bd 24 eb 44 bf
       -0.2499435 -0.43508786 -0.07117921 -0.76921296
000040 5f fe 40 be 9d 87 bd bc f5 c2 49 bf 4b 62 e3 3c
       -0.18847035 -0.023135955 -0.78813106 0.02775683
000050 5d e2 46 bf 0f 27 4f be e3 ef 4f bf 5a 98 ae 3d
       -0.7768915 -0.20229743 -0.81225413 0.085251525
000060 2c 39 1d bf cd f8 e8 be 52 5d e9 be 95 17 d2 be
       -0.6141536 -0.4550232 -0.4557901 -0.41033617
000070 a0 08 0d bf 50 db 7a be c1 d3 8b 3e 2e 67 f5 3d
       -0.55091286 -0.24497724 0.27309993 0.119825706
000080 03 86 93 be c5 47 a7 be 30 0a d5 be 51 cb 09 be
       -0.2881318 -0.32671943 -0.41609335 -0.13456465
000090 74 8d 34 bf d0 f3 aa be 37 3c 1d be 54 51 ea be
       -0.7052834 -0.3338914 -0.15355001 -0.45765173
0000a0 fd e2 a7 be 78 49 0f bf 97 67 15 bf dd 38 68 be
       -0.32790366 -0.5597148 -0.5836119 -0.22677942
0000b0 08 8d 32 bf ad db 35 bf 90 7a ec be b8 92 13 bf
       -0.69746447 -0.71038324 -0.46187258 -0.5764575
0000c0 f1 d3 31 bf 6e 14 f4 be 9a b2 26 bf 59 09 d9 be
       -0.6946402 -0.47671837 -0.65116274 -0.42389944
0000d0 94 35 21 bf fe e2 3f be 77 f0 0e bf 55 cd 0d bf
       -0.6297238 -0.18738934 -0.5583567 -0.55391437
0000e0 2b 1b 71 be 81 46 64 bf 2b c3 e3 be 89 3d 6a bf
       -0.2354552 -0.8917008 -0.4448484 -0.91500145

running_mean f4 [60]
000000 40 92 3f 3f 38 db 53 bf 43 ae 1f 3e 6f 75 a2 3c
       0.74832535 -0.82756376 0.1559382 0.019831387
000010 6b 8c 07 bf 62 40 01 bf e1 79 54 bf 6c cd 39 bd
       -0.52948636 -0.50488865 -0.8299847 -0.04536192
000020 01 0b 2b bd dd 55 92 3e b0 2e 02 3e ae 3a b2 3e
       -0.04175854 0.28581133 0.12713122 0.34810394
000030 60 52 bb be 48 bc d6 3d a5 0e 4a be 18 1c 1d 3f
       -0.36586285 0.104851305 -0.19732149 0.6137099
000040 a6 be 63 bf cc 6c 0f 3f ae 00 eb 3d fe 11 2a 3f
       -0.8896278 0.56025386 0.11474739 0.66433704
000050 08 82 6d 3f c8 b2 57 3e 59 c1 2c 3e 04 ec 3b 3d
       0.92776537 0.21064293 0.16870631 0.04587938
000060 9a 52 07 bf c1 71 bc 3d 27 d4 6b 3e 4a 18 98 3e
       -0.52860415 0.09201384 0.23030148 0.2970603
000070 64 1c 48 be 78 d7 a6 3e 95 ae b7 be 64 3b 38 be
       -0.1954208 0.32586265 -0.35875383 -0.17991406
000080 4a 30 fc be c0 5c bc bd c1 56 98 3f 76 5e 1d 3f
       -0.49255592 -0.09197378 1.1901475 0.6147226
000090 f4 70 58 bf df 92 35 be b3 4c 1f be f4 35 2f 3f
       -0.8454735 -0.17731808 -0.15556602 0.684417
0000a0 d9 21 aa 3e 9e e1 f4 3e c9 4a 04 bf ca f4 f8 be
       0.3322895 0.47828382 -0.51676613 -0.4862426
0000b0 0c 3c 1e 3f cf b1 9c 3e de 62 55 3e 5b 24 60 3e
       0.61810374 0.30604407 0.20838496 0.21888869
0000c0 f6 e4 a1 be 6a 97 6f 3e 78 27 ee be ab 2f f5 bd
       -0.31619996 0.23397604 -0.46514487 -0.119719826
0000d0 b2 1c 25 be 94 d4 12 bd f7 8f 87 3f 78 58 0c bf
       -0.16124228 -0.03584726 1.059081 -0.5482249
0000e0 dc 42 4b 3f bb 6d fe 3d 80 ac e6 3e c8 c1 39 bf
       0.79398894 0.12423273 0.45053482 -0.7256131

running_var f4 [60]
000000 32 0d 8a 3a 21 29 7c 3a 30 8a 9d 3a 33 4b bf 3a
       0.0010532497 0.0009619166 0.0012019332 0.0014594555
000010 ee b9 1f 3a 16 ef 4e 3a 73 88 22 3a 66 c1 9d 3a
       0.00060930743 0.0007893903 0.0006200142 0.0012035787
000020 95 13 1c 3a 54 fc 2a 3a 44 fd 35 3a 8a f2 f5 3a
       0.00059538457 0.0006522585 0.00069423416 0.0018764299
000030 70 a9 6d 3a 6a 13 65 3a 6a b0 95 3a f6 b1 14 3a
       0.00090660807 0.00087385497 0.0011420373 0.000567227
000040 de a2 88 3a 4e 9c f3 3a 7a 00 84 3a bc db b3 3a
       0.0010424515 0.0018586011 0.0010070943 0.0013722102
000050 ca 50 2d 3a fc 91 f0 3a 8d 88 9d 3a c9 5c 47 3a
       0.0006611465 0.0018354054 0.0012018845 0.00076050736
000060 c4 c1 86 3a d0 47 47 3a 49 8b 52 3a fc 6f 78 3a
       0.0010281135 0.00076019485 0.00080316194 0.0009477136
000070 17 b8 1c 3a 93 04 b3 3a a6 33 ba 3a 75 87 8e 3a
       0.0005978359 0.001365798 0.0014206066 0.001087411
000080 b7 53 da 3a 54 66 9f 3a 66 d9 71 3a 9d 65 b3 3a
       0.0016657029 0.0012161233 0.00092258153 0.0013686899
000090 1e 93 2a 3a de be bb 3a 07 e2 a1 3a bb fa 06 3a
       0.00065069075 0.0014323851 0.0012350687 0.0005149056
0000a0 7b 6e 90 3a 6c 0a 35 3a 45 be 84 3a 43 21 0e 3b
       0.0011019254 0.0006906155 0.0010127506 0.0021687306
0000b0 1d b8 51 3a 89 57 15 3a 30 80 5d 3a f9 6d ba 3a
       0.00080001523 0.00056969427 0.00084495824 0.0014223448
0000c0 d2 a0 61 3a f6 78 1f 3a 7d 8b 7c 3a d8 f4 de 3a
       0.0008607033 0.0006083393 0.00096338225 0.0017010225
0000d0 40 97 18 3a 86 a6 f9 3a 08 34 61 3a c8 34 19 3a
       0.0005820878 0.001904682 0.0008590822 0.0005844352
0000e0 a1 5f 3e 3a 9c 92 0b 3a c5 73 b6 3a 37 15 4d 3a
       0.00072621746 0.00053242757 0.001392 0.00078232907

weight f4 [30, 60]
000000 55 01 67 3a c3 53 4c 3c 98 dd 0a 3e e2 6d 55 3e
       0.0008812149 0.012471142 0.13561094 0.20842698
000010 f0 aa ef 3d e6 1c 2e be 29 b1 ce bb b9 eb 5b 3b
       0.117025256 -0.17003211 -0.00630774 0.003355725
000020 ca cf bd 3b b4 32 28 3e 53 b4 33 bd 5d 66 2d 3e
       0.0057925927 0.16425592 -0.043873142 0.1693358
000030 c1 b7 58 3d 0d 9f 91 3d eb e3 46 3d c2 62 b2 be
       0.052909616 0.07110415 0.048557203 -0.3484097
000040 6a fb f8 bd d8 b1 43 bd 7f 44 b5 be 49 70 94 bc
       -0.121573284 -0.047777027 -0.3540382 -0.018119948
000050 05 2c 23 3d 48 f1 da b9 c4 8d 7f be a0 1f ce 3d
       0.039836902 -0.0004175997 -0.24956423 0.10064626
000060 fb dd 27 bf 11 50 59 bd b7 8f 94 bd c1 c8 69 be
       -0.6557309 -0.053054873 -0.07253974 -0.22830488
000070 ee 24 fa bd 00 d5 c0 3a 29 3a f4 bd 4f 9a 44 bb
       -0.12214075 0.0014711916 -0.11925156 -0.0029999202
000080 55 5a 42 3c c9 68 56 bd a4 c8 80 bd 5c db bd be
       0.011862357 -0.052346025 -0.06288269 -0.3708142
000090 a8 9c 74 3d 56 f0 02 3d b7 af a5 bc b6 c9 9c be
       0.05971971 0.031967483 -0.020225389 -0.30622643
0000a0 e2 96 ae bd 76 4d 23 3e 96 5c 50 be 81 c9 28 3c
       -0.08524872 0.15947518 -0.20347819 0.0103019485
0000b0 47 f0 6e bc 5f 53 c2 bc b0 64 8a bb c6 13 0e be
       -0.014583654 -0.023721395 -0.0042234287 -0.1387473
0000c0 63 fd 71 bc c0 6d 8e bb ec 08 99 3d 52 f5 9c ba
       -0.014769885 -0.0043465793 0.07472405 -0.0011974967
0000d0 42 8f ca be 1b ba 41 be c5 94 ed 3c 06 8e ef ba
       -0.39562422 -0.1891865 0.029001603 -0.0018276579
0000e0 7f 56 12 be fd 83 11 3e 4b 1e a4 3c 83 8a 83 3d
       -0.14290808 0.14210506 0.020033976 0.064229034
0000f0 30 e7 1f bd 87 62 47 3d 99 6d 19 bf cc 6e bb 3e
       -0.039038837 0.048677947 -0.5993286 0.3660797
000100 25 c4 be 3c 4a 5a a0 bc 7b 01 52 bd 22 35 3a 3a
       0.023286888 -0.019574303 -0.051270943 0.00071032543
000110 33 93 cb bd 58 51 8e 3d 50 19 9e 39 f2 43 db ba
       -0.099401854 0.06949109 0.00030154968 -0.0016728623
000120 75 9e fd bd eb 7a 7a 3d 77 31 ee 3d f5 f0 39 3a
       -0.12383739 0.06115238 0.116305284 0.00070930953
000130 20 47 c0 bd 72 f0 04 be 56 e8 d3 3b ef f4 24 3b
       -0.09388566 -0.12982348 0.0064669056 0.0025170406
000140 0e b5 50 3e 9f 62 0b 3d a3 3f c1 bd d9 d9 80 3e
       0.20381567 0.0340296 -0.09435966 0.25166205
000150 f4 a5 3f 3c 29 c4 2b 3c 8c 67 d7 bb 3c b5 71 3c
       0.011697281 0.01048378 -0.006573623 0.014752682
000160 65 8a 0c be 2a 78 fb 3b 08 88 0f 3e 08 0f 2b be
       -0.13724668 0.007674237 0.14016736 -0.16704953
000170 ea 8b 7c be bc 19 91 3d 44 3e 18 3c d1 20 e4 3c
       -0.24662748 0.070849866 0.009292189 0.02784768
000180 7e 0a 1f bd 12 05 27 3d f5 3b e8 bd 20 99 fb 3d
       -0.038828366 0.04077632 -0.11339561 0.12285066
000190 1d 0e 5e 3b e3 92 8a 3e f6 a3 5c 3e 33 0c c5 bd
       0.0033882924 0.2706519 0.21546921 -0.096214674
0001a0 f4 c2 f6 bb b6 d3 85 bb 2c d8 67 be 0c b0 39 3e
       -0.0075305644 -0.004084076 -0.22641057 0.18133563
0001b0 64 8a 13 be b2 6e 68 bc 11 64 a9 bb 5e d8 94 3d
       -0.1440826 -0.014186548 -0.0051693995 0.07267831
0001c0 37 f8 dc 3c 10 8f 90 3c 8e 30 d2 bd 96 a6 6a 3d
       0.026973827 0.017646343 -0.10263167 0.057287775
0001d0 6a e8 db 3d 46 9a da 3b ce d1 0e bd 84 06 e6 bb
       0.10737689 0.006671223 -0.034868054 -0.0070198197
0001e0 f6 89 17 bd 52 38 9a 3c 47 65 47 bc a3 de f3 3c
       -0.036996804 0.018825684 -0.0121701425 0.029769247
0001f0 09 b3 25 3e ea 53 1d be 40 93 e3 bc e0 77 a7 3d
       0.16181578 -0.15364042 -0.027780175 0.08177161
000200 a0 a2 54 bd 80 8b 15 bf 0d bc 6d bd a6 93 2b be
       -0.051912904 -0.58415985 -0.058040667 -0.16755542
000210 f4 a4 27 3d a9 56 cb bc 84 26 95 3b 8e 33 24 3e
       0.040928796 -0.024821596 0.0045517106 0.16035292
000220 4d c5 1c be 99 ff a4 3e 4a c9 b0 bc 3d c0 2e be
       -0.1530964 0.32226256 -0.021580357 -0.1706552
000230 fc 8a f5 3d a5 f9 2b 3b 54 5d 0b 3d 1c 38 ae 3d
       0.119894 0.002624133 0.03402455 0.08506796
000240 8b 46 df bc 7d 30 11 3e 6e a3 b0 bd 60 5a 97 3d
       -0.027255317 0.14178653 -0.08624922 0.073902845
000250 42 b8 ad 3d aa 7f d2 3e 44 6f ad bc c7 5a af bd
       0.0848241 0.41113025 -0.02117122 -0.08562236
000260 7b 9d 7d 3d 56 2f 03 bc 89 57 36 be e6 b7 3e bd
       0.061917763 -0.008006891 -0.1780683 -0.046562098
000270 30 8a 8b 3b e7 d7 0d 3d b7 7f af 3e e0 fa bf bc
       0.0042584166 0.03462973 0.34277126 -0.023435056
000280 53 f6 0b 3d 90 5c 84 be dd cd 9c bc 61 b6 db bd
       0.03417046 -0.2585187 -0.019141132 -0.107281454
000290 dd 6a 24 3c e4 f8 de bd e0 73 48 3c 9d 02 41 3c
       0.010035244 -0.10887316 0.012234658 0.011780408
0002a0 69 0f 4c be 4f 51 bb bc c7 e1 b7 3c 54 ff 19 3c
       -0.19927754 -0.02286592 0.022446526 0.009399254
0002b0 03 c0 d6 3d 88 b6 99 bd 69 39 21 be f2 4a 10 bd
       0.10485842 -0.07505518 -0.15744556 -0.035227723
0002c0 e7 2d ba 3c 40 14 29 be 88 41 7a 3b e3 64 e2 3d
       0.022726966 -0.16511631 0.0038186032 0.11054399
0002d0 ed 77 c2 bd 10 9f b4 3c 01 75 d8 3d 86 6d 89 bd
       -0.0949553 0.022048503 0.10569192 -0.06710343
0002e0 b1 e6 16 be 51 d8 80 bd e8 b7 56 3e c8 d9 ac 3d
       -0.1473644 -0.06291259 0.20968592 0.08439976
0002f0 bf 18 21 bc ab 20 73 bb c0 9a 14 be a7 e5 05 bc
       -0.00983256 -0.003709833 -0.14512157 -0.008172429
000300 a5 0b 15 bd 2c 06 12 3e 58 45 a4 3e 99 bb a1 3e
       -0.03638806 0.14260167 0.32084155 0.31588438
000310 21 15 bc 3d 1e c4 69 bd 8a 96 21 bb c4 fe f4 be
       0.091837175 -0.057071798 -0.0024656379 -0.4785062
000320 07 fd 62 be 66 19 eb be 39 47 89 3d 09 68 26 be
       -0.22166835 -0.45917815 0.06703038 -0.16250624
000330 29 05 ad b9 43 6f 81 3d 02 5d 1e 3d 10 2b c9 bd
       -0.00033000976 0.063200496 0.038662918 -0.09822667
000340 1b 12 04 3e 97 41 e3 ba ae 8a 25 bc 27 3b 13 bd
       0.12897532 -0.0017338273 -0.010103865 -0.035945084
000350 bc 0e 63 bd ec fa 37 be 74 19 c6 be 83 72 99 bd
       -0.055433974 -0.17966813 -0.38691294 -0.074925445
000360 c4 5b c3 3d e4 7c 72 bd 04 f3 0a be 93 a6 eb b9
       0.09538987 -0.059201136 -0.13569266 -0.000449468
000370 d0 cb 45 be fd 8d 99 bc da 6f b7 3d 95 13 44 bd
       -0.1931603 -0.018744463 0.08956881 -0.047870237
000380 d8 b4 30 3a 33 7a 67 3c 2c 84 7f 3a 4f 7f c9 3e
       0.0006740815 0.014128256 0.0009747173 0.3935494
000390 0c 9e 1d ba 25 43 5e 3e 90 85 49 be f5 b2 db be
       -0.00060126255 0.21705301 -0.19679856 -0.4290997
0003a0 50 54 9c 3b 3a c2 f2 bd 94 c6 4a bd 8d ca c7 3d
       0.004770793 -0.11853452 -0.049505785 0.0975543
0003b0 1c 58 a4 bd ee 19 51 3c 2f c8 65 3b 27 ce 96 ba
       -0.08024618 0.01276253 0.0035061946 -0.001150553
0003c0 51 5e 1f 3e 5b b9 2f 3e bb 4a ab 3d d8 b8 2c 3e
       0.15563323 0.17160551 0.08363863 0.16867387
0003d0 d0 c2 29 be 46 0b f8 3d 55 e2 48 bf 74 a0 db bc
       -0.16578221 0.12111525 -0.78470355 -0.026809908
0003e0 f9 aa 65 be a5 bb 2f be b1 26 0c 3c 93 a1 81 39
       -0.22428502 -0.17161424 0.008554147 0.0002472518
0003f0 9f 21 40 3e 7d b7 1b 3e 6e 18 aa 3d 9b cf 13 3c
       0.18762825 0.15206714 0.08305441 0.009021665

bias f4 [30]
000000 15 64 07 b9 c1 c8 ce 38 1d e4 17 38 3c f4 fe b7
       -0.00012911887 9.860239e-05 3.6213652e-05 -3.039289e-05
000010 72 b0 82 b8 ff a2 f2 34 31 41 0b b9 cd dc 46 b8
       -6.2317486e-05 4.5194608e-07 -0.00013280359 -4.7412515e-05
000020 b7 1d d9 38 0b 30 fd 37 20 af f8 b8 fa dc aa b8
       0.00010352901 3.0182322e-05 -0.00011858181 -8.147392e-05
000030 11 66 98 b8 ce 89 87 b7 ed ce 00 b8 66 1c 98 37
       -7.266936e-05 -1.6157424e-05 -3.0710293e-05 1.8133036e-05
000040 50 f9 4d 34 00 40 fc 38 0a 41 67 b8 bd 34 c5 b8
       1.9182812e-07 0.00012028217 -5.5135264e-05 -9.403515e-05
000050 d1 2c 04 38 0c 52 11 b8 2d 1f 19 b8 91 c7 2a 38
       3.151299e-05 -3.4647106e-05 -3.6507077e-05 4.071702e-05
000060 53 e8 06 38 b1 50 f0 b8 d6 af 1a 38 8f 98 82 b8
       3.216446e-05 -0.00011459122 3.688022e-05 -6.227299e-05
000070 d2 eb 07 b7 9d 9f 0e 37
       -8.101533e-06 8.501022e-06

weight f4 [30]
000000 0a 85 1e 3f 18 e3 f1 3e 5f 45 17 3f 38 0c 9d 3e
       0.6192175 0.4724357 0.59090227 0.30673385
000010 14 10 13 3f da 96 fa 3e 40 f7 e6 3e b5 cb d3 3e
       0.5744641 0.48943216 0.45110512 0.41366354
000020 36 85 e1 3e 50 f6 10 3f 08 1a f0 3e 4f 6b d8 3e
       0.44046944 0.56625843 0.4689486 0.4226937
000030 61 f7 01 3f 0f 24 2b 3f cd df ea 3e 0c 45 05 3f
       0.50768095 0.66851896 0.4587387 0.5205848
000040 ad bc b2 3e 95 aa 1d 3f c9 bf e8 3e f6 45 db 3e
       0.34909573 0.6158841 0.4545882 0.42826813
000050 0e e9 8e 3e c5 8f 15 3f d0 8b cc 3e c5 cc b0 3e
       0.27912182 0.584225 0.39950418 0.34531227
000060 09 76 10 3f 7e fa 48 3f 64 55 0e 3f 9a b2 1a 3f
       0.5643011 0.7850722 0.55599046 0.60428774
000070 15 b1 b4 3e 61 c0 d9 3e
       0.35291353 0.42529586

bias f4 [30]
000000 ba b1 1c 3d 7f 21 8f bd 13 2d 4a 3e 7c 47 56 3e
       0.03825543 -0.06988811 0.19743757 0.20925707
000010 c7 08 0f bf 32 ee 07 bf d9 0b 58 3e 4f 9e a6 be
       -0.5587277 -0.5309783 0.2109827 -0.32542655
000020 cc 68 75 3e e1 47 3f be c7 3f 61 3e b6 54 7e be
       0.23965758 -0.18679763 0.21996985 -0.24837002
000030 eb 3a 0b 3e 80 bd 61 be 1b c4 17 3e 0c 1f a5 3e
       0.13596694 -0.22044945 0.14820902 0.3225025
000040 d4 bd ca 3d ae 30 b9 3e 20 3e 84 3e 50 ff 68 be
       0.09899488 0.36169952 0.25828648 -0.22753644
000050 8b 1a e7 be 2e 0d b7 3d 25 60 c7 be e0 30 c0 3d
       -0.45137438 0.08938061 -0.3894054 0.09384322
000060 b2 ef 14 3d 04 d3 28 bf ff 14 2d 3c 1e b4 f8 bc
       0.036361404 -0.65946984 0.010564088 -0.030359324
000070 59 cb 99 be 33 3c 82 3e
       -0.30037954 0.25436553

running_mean f4 [30]
000000 8c 31 f1 3d a6 05 0c 3d 4f db a0 bc 2c 13 59 be
       0.117770284 0.034185074 -0.019635824 -0.2119872
000010 6c 37 a3 3e 8f 4c 28 be 9a d3 ed 3b c4 3b 1b 3e
       0.3187822 -0.16435455 0.007257891 0.15159518
000020 c2 f2 de 3d 35 14 aa 3d 60 7b 83 b9 d2 d2 18 3d
       0.10886146 0.083046354 -0.0002507819 0.03731043
000030 c7 9c 23 bd 5e 8d 3d be df a6 fb 3c 61 cf 2d be
       -0.039944436 -0.18510959 0.030719219 -0.1697364
000040 eb 10 4a bd 8c 9d 3b be 54 b0 e7 bd 7e fb d7 3d
       -0.04933254 -0.18321818 -0.11312929 0.10546015
000050 18 ca 4a 3d 59 b4 41 be 84 ed 4b 3e 7c 4f ef 3d
       0.049509138 -0.18916453 0.19914824 0.11685082
000060 1b 16 a3 3d 47 7f a1 3d ce fe be bd ee 53 c1 3d
       0.07963201 0.07885604 -0.09325944 0.094398364
000070 bc 72 8e bd 11 99 6c bd
       -0.069554776 -0.057763163

running_var f4 [30]
000000 d9 f0 9c 3e b9 29 ce 3d 50 cb 5d 3e 3c 9b 26 3e
       0.30652502 0.10066552 0.21659589 0.16270155
000010 e8 5b cc 3d 7c b9 ae 3e 00 75 43 3e b0 44 32 3e
       0.09978467 0.34125888 0.190876 0.17409015
000020 e0 da 5d 3e 4c 6f 9d 3d d3 88 a4 3e a2 8d d7 3d
       0.21665525 0.07687244 0.3213564 0.10525061
000030 83 de b2 3e f3 f9 30 3e 85 6b 50 3e 28 8d 53 3e
       0.34935388 0.17282848 0.20353515 0.20659316
000040 71 81 ca 3d f4 31 26 3e 6c e7 7d 3e 2f 10 a3 3d
       0.0988797 0.16229993 0.24795312 0.07962071
000050 7d c1 22 3e 37 42 16 3e 33 06 75 3e a6 f7 2c 3e
       0.15894122 0.14673696 0.23928146 0.16891345
000060 92 82 3f 3e f0 9c 5d 3e be 56 10 3e 86 c2 aa 3d
       0.18702152 0.21641898 0.1409559 0.08337884
000070 ca 3a 05 3e d3 c2 a3 3e
       0.13010707 0.31984577

weight f4 [1, 30]
000000 af b9 e2 3d 6c 73 70 3d 1e 42 b7 3d 1f 97 e7 3d
       0.110705726 0.058703825 0.08948158 0.11308121
000010 31 e0 56 be 48 63 92 be 48 8e b9 3d dd 5e cd bd
       -0.2098396 -0.2859137 0.09060341 -0.10027859
000020 ea 1c ea 3d 4f d9 5f 3d 2f 54 0a 3e e1 bf c7 bd
       0.11431296 0.0546506 0.13508676 -0.09753395
000030 6d 0c f3 3d 5d ae df bd 7e 0a be 3d 9c b0 f5 3d
       0.118676044 -0.10921929 0.09279345 0.11996576
000040 a2 68 88 3d 0e ac f0 3d dc 29 00 3e 7b b6 88 bd
       0.06660582 0.11751567 0.12515968 -0.066754304
000050 8c ef 20 be 0d c2 7e 3d 39 9e 2c be 0f da 86 3d
       -0.1571638 0.06219678 -0.16857232 0.0658456
000060 51 1b ac 3d 4c 79 7e be 99 28 8b 3d 1c 99 80 3d
       0.08403648 -0.24850959 0.06794853 0.06279203
000070 48 7e e6 bd f1 3e e0 3d
       -0.11254555 0.10949505
